read data in 4m 38s
maxsrccount106maxdstcount129
get locality in 4m 52s
----------------------------------------------------------------
        Layer (type)               Output Shape         Param #
================================================================
            Linear-1                  [-1, 768]         232,704
              ReLU-2                  [-1, 768]               0
         LayerNorm-3                  [-1, 768]           1,536
            Linear-4                  [-1, 512]         393,728
              ReLU-5                  [-1, 512]               0
         LayerNorm-6                  [-1, 512]           1,024
            Linear-7                  [-1, 256]         131,328
              ReLU-8                  [-1, 256]               0
         LayerNorm-9                  [-1, 256]             512
           Linear-10                  [-1, 128]          32,896
             ReLU-11                  [-1, 128]               0
        LayerNorm-12                  [-1, 128]             256
           Linear-13                   [-1, 64]           8,256
           Linear-14                   [-1, 64]           8,256
================================================================
Total params: 810,496
Trainable params: 810,496
Non-trainable params: 0
----------------------------------------------------------------
Input size (MB): 0.06
Forward/backward pass size (MB): 0.04
Params size (MB): 3.09
Estimated Total Size (MB): 3.19
----------------------------------------------------------------
encoder: None
----------------------------------------------------------------
        Layer (type)               Output Shape         Param #
================================================================
            Linear-1                  [-1, 128]          38,656
              ReLU-2                  [-1, 128]               0
         LayerNorm-3                  [-1, 128]             256
            Linear-4                  [-1, 256]          33,024
              ReLU-5                  [-1, 256]               0
         LayerNorm-6                  [-1, 256]             512
            Linear-7                  [-1, 512]         131,584
              ReLU-8                  [-1, 512]               0
         LayerNorm-9                  [-1, 512]           1,024
           Linear-10                  [-1, 768]         393,984
             ReLU-11                  [-1, 768]               0
        LayerNorm-12                  [-1, 768]           1,536
           Linear-13                   [-1, 65]          49,985
================================================================
Total params: 650,561
Trainable params: 650,561
Non-trainable params: 0
----------------------------------------------------------------
Input size (MB): 0.06
Forward/backward pass size (MB): 0.04
Params size (MB): 2.48
Estimated Total Size (MB): 2.58
----------------------------------------------------------------
decoder: None
start in: 2023/12/03 16:39:23
…
