read data in 7m 5s
maxsrccount106maxdstcount129
get locality in 7m 24s
----------------------------------------------------------------
        Layer (type)               Output Shape         Param #
================================================================
            Linear-1                  [-1, 128]          38,784
              ReLU-2                  [-1, 128]               0
            Linear-3                  [-1, 256]          33,024
              ReLU-4                  [-1, 256]               0
            Linear-5                  [-1, 512]         131,584
              ReLU-6                  [-1, 512]               0
            Linear-7                  [-1, 768]         393,984
              ReLU-8                  [-1, 768]               0
            Linear-9                 [-1, 1024]         787,456
           Linear-10                 [-1, 1024]         787,456
================================================================
Total params: 2,172,288
Trainable params: 2,172,288
Non-trainable params: 0
----------------------------------------------------------------
Input size (MB): 0.06
Forward/backward pass size (MB): 0.04
Params size (MB): 8.29
Estimated Total Size (MB): 8.39
----------------------------------------------------------------
encoder: None
----------------------------------------------------------------
        Layer (type)               Output Shape         Param #
================================================================
            Linear-1                  [-1, 768]         969,216
              ReLU-2                  [-1, 768]               0
            Linear-3                  [-1, 512]         393,728
              ReLU-4                  [-1, 512]               0
            Linear-5                  [-1, 256]         131,328
              ReLU-6                  [-1, 256]               0
            Linear-7                  [-1, 128]          32,896
              ReLU-8                  [-1, 128]               0
            Linear-9                   [-1, 65]           8,385
================================================================
Total params: 1,535,553
Trainable params: 1,535,553
Non-trainable params: 0
----------------------------------------------------------------
Input size (MB): 0.93
Forward/backward pass size (MB): 0.03
Params size (MB): 5.86
Estimated Total Size (MB): 6.81
----------------------------------------------------------------
decoder: None
…
