read data in 0m 0s
maxsrccount2maxdstcount2
get locality in 0m 0s
----------------------------------------------------------------
        Layer (type)               Output Shape         Param #
================================================================
            Linear-1                  [-1, 768]          55,296
              ReLU-2                  [-1, 768]               0
            Linear-3                  [-1, 512]         393,728
              ReLU-4                  [-1, 512]               0
            Linear-5                  [-1, 256]         131,328
              ReLU-6                  [-1, 256]               0
            Linear-7                   [-1, 32]           8,224
            Linear-8                   [-1, 32]           8,224
================================================================
Total params: 596,800
Trainable params: 596,800
Non-trainable params: 0
----------------------------------------------------------------
Input size (MB): 0.00
Forward/backward pass size (MB): 0.02
Params size (MB): 2.28
Estimated Total Size (MB): 2.30
----------------------------------------------------------------
encoder: None
----------------------------------------------------------------
        Layer (type)               Output Shape         Param #
================================================================
            Linear-1                  [-1, 256]           9,984
              ReLU-2                  [-1, 256]               0
            Linear-3                  [-1, 512]         131,584
              ReLU-4                  [-1, 512]               0
            Linear-5                  [-1, 768]         393,984
              ReLU-6                  [-1, 768]               0
            Linear-7                   [-1, 65]          49,985
================================================================
Total params: 585,537
Trainable params: 585,537
Non-trainable params: 0
----------------------------------------------------------------
Input size (MB): 0.00
Forward/backward pass size (MB): 0.02
Params size (MB): 2.23
Estimated Total Size (MB): 2.26
----------------------------------------------------------------
decoder: None
start in: 2023/11/17 08:22:00
…
